…
[2025-05-18 18:49:07]     differentiable: False
[2025-05-18 18:49:07]     eps: 1e-08
[2025-05-18 18:49:07]     foreach: None
[2025-05-18 18:49:07]     fused: None
[2025-05-18 18:49:07]     lr: 0.001
[2025-05-18 18:49:07]     maximize: False
[2025-05-18 18:49:07]     weight_decay: 0.01
[2025-05-18 18:49:07] )
[2025-05-18 18:49:07] Crnn5(
[2025-05-18 18:49:07]   (melspec_extractor): MelSpectrogram(
[2025-05-18 18:49:07]     (spectrogram): Spectrogram()
[2025-05-18 18:49:07]     (mel_scale): MelScale()
[2025-05-18 18:49:07]   )
[2025-05-18 18:49:07]   (db_transform): AmplitudeToDB()
[2025-05-18 18:49:07]   (bn): BatchNorm2d(64, eps=1e-05, momentum=0.1, affine=True, track_running_stats=True)
[2025-05-18 18:49:07]   (cnn): Sequential(
[2025-05-18 18:49:07]     (0): Conv2d(1, 16, kernel_size=(3, 3), stride=(1, 1), padding=(1, 1), bias=False)
[2025-05-18 18:49:07]     (1): BatchNorm2d(16, eps=1e-05, momentum=0.1, affine=True, track_running_stats=True)
[2025-05-18 18:49:07]     (2): ReLU()
[2025-05-18 18:49:07]     (3): MaxPool2d(kernel_size=(1, 2), stride=(1, 2), padding=0, dilation=1, ceil_mode=False)
[2025-05-18 18:49:07]     (4): Conv2d(16, 32, kernel_size=(3, 3), stride=(1, 1), padding=(1, 1), bias=False)
[2025-05-18 18:49:07]     (5): BatchNorm2d(32, eps=1e-05, momentum=0.1, affine=True, track_running_stats=True)
[2025-05-18 18:49:07]     (6): ReLU()
[2025-05-18 18:49:07]     (7): MaxPool2d(kernel_size=(1, 2), stride=(1, 2), padding=0, dilation=1, ceil_mode=False)
[2025-05-18 18:49:07]     (8): Conv2d(32, 64, kernel_size=(3, 3), stride=(1, 1), padding=(1, 1), bias=False)
[2025-05-18 18:49:07]     (9): BatchNorm2d(64, eps=1e-05, momentum=0.1, affine=True, track_running_stats=True)
[2025-05-18 18:49:07]     (10): ReLU()
[2025-05-18 18:49:07]     (11): MaxPool2d(kernel_size=(1, 2), stride=(1, 2), padding=0, dilation=1, ceil_mode=False)
[2025-05-18 18:49:07]     (12): Conv2d(64, 128, kernel_size=(3, 3), stride=(1, 1), padding=(1, 1), bias=False)
[2025-05-18 18:49:07]     (13): BatchNorm2d(128, eps=1e-05, momentum=0.1, affine=True, track_running_stats=True)
[2025-05-18 18:49:07]     (14): ReLU()
[2025-05-18 18:49:07]     (15): MaxPool2d(kernel_size=(1, 2), stride=(1, 2), padding=0, dilation=1, ceil_mode=False)
[2025-05-18 18:49:07]     (16): Conv2d(128, 256, kernel_size=(3, 3), stride=(1, 1), padding=(1, 1), bias=False)
[2025-05-18 18:49:07]     (17): BatchNorm2d(256, eps=1e-05, momentum=0.1, affine=True, track_running_stats=True)
[2025-05-18 18:49:07]     (18): ReLU()
[2025-05-18 18:49:07]     (19): MaxPool2d(kernel_size=(1, 2), stride=(1, 2), padding=0, dilation=1, ceil_mode=False)
[2025-05-18 18:49:07]   )
[2025-05-18 18:49:07]   (bigru): GRU(512, 256, batch_first=True, bidirectional=True)
[2025-05-18 18:49:07]   (fc): Linear(in_features=512, out_features=10, bias=True)
[2025-05-18 18:49:07] )
[2025-05-18 18:49:34] Epoch 1   training_loss: 0.36  val_loss: 0.36  precision: 0.03  recall: 0.01  f1: 0.01
[2025-05-18 18:50:08] Epoch 2   training_loss: 0.30  val_loss: 0.27  precision: 0.29  recall: 0.19  f1: 0.22
[2025-05-18 18:50:42] Epoch 3   training_loss: 0.26  val_loss: 0.26  precision: 0.57  recall: 0.25  f1: 0.32
…
